Model: "model"
__________________________________________________________________________________________________
Layer (type)                    Output Shape         Param #     Connected to                     
==================================================================================================
input_1 (InputLayer)            [(None, 128, 128, 3) 0                                            
__________________________________________________________________________________________________
conv2d (Conv2D)                 (None, 128, 128, 16) 448         input_1[0][0]                    
__________________________________________________________________________________________________
batch_normalization (BatchNorma (None, 128, 128, 16) 64          conv2d[0][0]                     
__________________________________________________________________________________________________
activation (Activation)         (None, 128, 128, 16) 0           batch_normalization[0][0]        
__________________________________________________________________________________________________
conv2d_1 (Conv2D)               (None, 128, 128, 16) 2320        activation[0][0]                 
__________________________________________________________________________________________________
batch_normalization_1 (BatchNor (None, 128, 128, 16) 64          conv2d_1[0][0]                   
__________________________________________________________________________________________________
activation_1 (Activation)       (None, 128, 128, 16) 0           batch_normalization_1[0][0]      
__________________________________________________________________________________________________
conv2d_2 (Conv2D)               (None, 64, 64, 32)   4640        activation_1[0][0]               
__________________________________________________________________________________________________
batch_normalization_2 (BatchNor (None, 64, 64, 32)   128         conv2d_2[0][0]                   
__________________________________________________________________________________________________
activation_2 (Activation)       (None, 64, 64, 32)   0           batch_normalization_2[0][0]      
__________________________________________________________________________________________________
conv2d_3 (Conv2D)               (None, 64, 64, 32)   9248        activation_2[0][0]               
__________________________________________________________________________________________________
batch_normalization_3 (BatchNor (None, 64, 64, 32)   128         conv2d_3[0][0]                   
__________________________________________________________________________________________________
activation_3 (Activation)       (None, 64, 64, 32)   0           batch_normalization_3[0][0]      
__________________________________________________________________________________________________
conv2d_4 (Conv2D)               (None, 64, 64, 32)   9248        activation_3[0][0]               
__________________________________________________________________________________________________
batch_normalization_4 (BatchNor (None, 64, 64, 32)   128         conv2d_4[0][0]                   
__________________________________________________________________________________________________
activation_4 (Activation)       (None, 64, 64, 32)   0           batch_normalization_4[0][0]      
__________________________________________________________________________________________________
conv2d_5 (Conv2D)               (None, 32, 32, 64)   18496       activation_4[0][0]               
__________________________________________________________________________________________________
batch_normalization_5 (BatchNor (None, 32, 32, 64)   256         conv2d_5[0][0]                   
__________________________________________________________________________________________________
activation_5 (Activation)       (None, 32, 32, 64)   0           batch_normalization_5[0][0]      
__________________________________________________________________________________________________
conv2d_6 (Conv2D)               (None, 32, 32, 64)   36928       activation_5[0][0]               
__________________________________________________________________________________________________
batch_normalization_6 (BatchNor (None, 32, 32, 64)   256         conv2d_6[0][0]                   
__________________________________________________________________________________________________
activation_6 (Activation)       (None, 32, 32, 64)   0           batch_normalization_6[0][0]      
__________________________________________________________________________________________________
conv2d_7 (Conv2D)               (None, 32, 32, 64)   36928       activation_6[0][0]               
__________________________________________________________________________________________________
batch_normalization_7 (BatchNor (None, 32, 32, 64)   256         conv2d_7[0][0]                   
__________________________________________________________________________________________________
activation_7 (Activation)       (None, 32, 32, 64)   0           batch_normalization_7[0][0]      
__________________________________________________________________________________________________
conv2d_8 (Conv2D)               (None, 16, 16, 128)  73856       activation_7[0][0]               
__________________________________________________________________________________________________
batch_normalization_8 (BatchNor (None, 16, 16, 128)  512         conv2d_8[0][0]                   
__________________________________________________________________________________________________
activation_8 (Activation)       (None, 16, 16, 128)  0           batch_normalization_8[0][0]      
__________________________________________________________________________________________________
conv2d_9 (Conv2D)               (None, 16, 16, 128)  147584      activation_8[0][0]               
__________________________________________________________________________________________________
batch_normalization_9 (BatchNor (None, 16, 16, 128)  512         conv2d_9[0][0]                   
__________________________________________________________________________________________________
activation_9 (Activation)       (None, 16, 16, 128)  0           batch_normalization_9[0][0]      
__________________________________________________________________________________________________
conv2d_10 (Conv2D)              (None, 16, 16, 128)  147584      activation_9[0][0]               
__________________________________________________________________________________________________
batch_normalization_10 (BatchNo (None, 16, 16, 128)  512         conv2d_10[0][0]                  
__________________________________________________________________________________________________
activation_10 (Activation)      (None, 16, 16, 128)  0           batch_normalization_10[0][0]     
__________________________________________________________________________________________________
conv2d_11 (Conv2D)              (None, 8, 8, 256)    295168      activation_10[0][0]              
__________________________________________________________________________________________________
batch_normalization_11 (BatchNo (None, 8, 8, 256)    1024        conv2d_11[0][0]                  
__________________________________________________________________________________________________
activation_11 (Activation)      (None, 8, 8, 256)    0           batch_normalization_11[0][0]     
__________________________________________________________________________________________________
conv2d_12 (Conv2D)              (None, 8, 8, 256)    590080      activation_11[0][0]              
__________________________________________________________________________________________________
batch_normalization_12 (BatchNo (None, 8, 8, 256)    1024        conv2d_12[0][0]                  
__________________________________________________________________________________________________
activation_12 (Activation)      (None, 8, 8, 256)    0           batch_normalization_12[0][0]     
__________________________________________________________________________________________________
conv2d_13 (Conv2D)              (None, 8, 8, 256)    590080      activation_12[0][0]              
__________________________________________________________________________________________________
batch_normalization_13 (BatchNo (None, 8, 8, 256)    1024        conv2d_13[0][0]                  
__________________________________________________________________________________________________
activation_13 (Activation)      (None, 8, 8, 256)    0           batch_normalization_13[0][0]     
__________________________________________________________________________________________________
conv2d_transpose (Conv2DTranspo (None, 16, 16, 256)  262400      activation_13[0][0]              
__________________________________________________________________________________________________
concatenate (Concatenate)       (None, 16, 16, 384)  0           conv2d_transpose[0][0]           
                                                                 activation_10[0][0]              
__________________________________________________________________________________________________
conv2d_14 (Conv2D)              (None, 16, 16, 256)  884992      concatenate[0][0]                
__________________________________________________________________________________________________
batch_normalization_14 (BatchNo (None, 16, 16, 256)  1024        conv2d_14[0][0]                  
__________________________________________________________________________________________________
activation_14 (Activation)      (None, 16, 16, 256)  0           batch_normalization_14[0][0]     
__________________________________________________________________________________________________
conv2d_15 (Conv2D)              (None, 16, 16, 256)  590080      activation_14[0][0]              
__________________________________________________________________________________________________
batch_normalization_15 (BatchNo (None, 16, 16, 256)  1024        conv2d_15[0][0]                  
__________________________________________________________________________________________________
activation_15 (Activation)      (None, 16, 16, 256)  0           batch_normalization_15[0][0]     
__________________________________________________________________________________________________
conv2d_transpose_1 (Conv2DTrans (None, 32, 32, 128)  131200      activation_15[0][0]              
__________________________________________________________________________________________________
concatenate_1 (Concatenate)     (None, 32, 32, 192)  0           conv2d_transpose_1[0][0]         
                                                                 activation_7[0][0]               
__________________________________________________________________________________________________
conv2d_16 (Conv2D)              (None, 32, 32, 128)  221312      concatenate_1[0][0]              
__________________________________________________________________________________________________
batch_normalization_16 (BatchNo (None, 32, 32, 128)  512         conv2d_16[0][0]                  
__________________________________________________________________________________________________
activation_16 (Activation)      (None, 32, 32, 128)  0           batch_normalization_16[0][0]     
__________________________________________________________________________________________________
conv2d_17 (Conv2D)              (None, 32, 32, 128)  147584      activation_16[0][0]              
__________________________________________________________________________________________________
batch_normalization_17 (BatchNo (None, 32, 32, 128)  512         conv2d_17[0][0]                  
__________________________________________________________________________________________________
activation_17 (Activation)      (None, 32, 32, 128)  0           batch_normalization_17[0][0]     
__________________________________________________________________________________________________
conv2d_transpose_2 (Conv2DTrans (None, 64, 64, 64)   32832       activation_17[0][0]              
__________________________________________________________________________________________________
concatenate_2 (Concatenate)     (None, 64, 64, 96)   0           conv2d_transpose_2[0][0]         
                                                                 activation_4[0][0]               
__________________________________________________________________________________________________
conv2d_18 (Conv2D)              (None, 64, 64, 64)   55360       concatenate_2[0][0]              
__________________________________________________________________________________________________
batch_normalization_18 (BatchNo (None, 64, 64, 64)   256         conv2d_18[0][0]                  
__________________________________________________________________________________________________
activation_18 (Activation)      (None, 64, 64, 64)   0           batch_normalization_18[0][0]     
__________________________________________________________________________________________________
conv2d_19 (Conv2D)              (None, 64, 64, 64)   36928       activation_18[0][0]              
__________________________________________________________________________________________________
batch_normalization_19 (BatchNo (None, 64, 64, 64)   256         conv2d_19[0][0]                  
__________________________________________________________________________________________________
activation_19 (Activation)      (None, 64, 64, 64)   0           batch_normalization_19[0][0]     
__________________________________________________________________________________________________
conv2d_transpose_3 (Conv2DTrans (None, 128, 128, 32) 8224        activation_19[0][0]              
__________________________________________________________________________________________________
concatenate_3 (Concatenate)     (None, 128, 128, 48) 0           conv2d_transpose_3[0][0]         
                                                                 activation_1[0][0]               
__________________________________________________________________________________________________
conv2d_20 (Conv2D)              (None, 128, 128, 32) 13856       concatenate_3[0][0]              
__________________________________________________________________________________________________
batch_normalization_20 (BatchNo (None, 128, 128, 32) 128         conv2d_20[0][0]                  
__________________________________________________________________________________________________
activation_20 (Activation)      (None, 128, 128, 32) 0           batch_normalization_20[0][0]     
__________________________________________________________________________________________________
conv2d_21 (Conv2D)              (None, 128, 128, 32) 9248        activation_20[0][0]              
__________________________________________________________________________________________________
batch_normalization_21 (BatchNo (None, 128, 128, 32) 128         conv2d_21[0][0]                  
__________________________________________________________________________________________________
activation_21 (Activation)      (None, 128, 128, 32) 0           batch_normalization_21[0][0]     
__________________________________________________________________________________________________
conv2d_22 (Conv2D)              (None, 128, 128, 3)  99          activation_21[0][0]              
__________________________________________________________________________________________________
activation_22 (Activation)      (None, 128, 128, 3)  0           conv2d_22[0][0]                  
==================================================================================================
Total params: 4,366,451
Trainable params: 4,361,587
Non-trainable params: 4,864
__________________________________________________________________________________________________
None
